…
ssifier_path': '../../data/classifier', 'dropout': 0.0, 'batch_size': 32, 'noise_radius': 0.2}
1
setting cuda device to 0
Dumping into directory rk_new/1525228276
Create experiment at ../../data/arae/output/example/
original vocab 36706; pruned to 11004
Number of sentences dropped from ../../data/train.txt: 270949 out of 714667 total
Number of sentences dropped from ../../data/test.txt: 5481 out of 13323 total
Number of sentences dropped from ../../data/classifier/train.txt: 448221 out of 549367 total
LSTM(100, 300, batch_first=True)
Loaded data!
Vocabulary Size: 11004
Seq2SeqCAE(
  (embedding): Embedding(11004, 300)
  (embedding_decoder): Embedding(11004, 300)
  (encoder): Sequential(
    (layer-1): Conv1d (300, 500, kernel_size=(3,), stride=(1,))
    (bn-1): BatchNorm1d(500, eps=1e-05, momentum=0.1, affine=True)
    (activation-1): LeakyReLU(0.2, inplace)
    (layer-2): Conv1d (500, 700, kernel_size=(3,), stride=(2,))
    (bn-2): BatchNorm1d(700, eps=1e-05, momentum=0.1, affine=True)
    (activation-2): LeakyReLU(0.2, inplace)
    (layer-3): Conv1d (700, 1000, kernel_size=(3,), stride=(2,))
    (bn-3): BatchNorm1d(1000, eps=1e-05, momentum=0.1, affine=True)
    (activation-3): LeakyReLU(0.2, inplace)
  )
  (linear): Linear(in_features=1000, out_features=300)
  (decoder): LSTM(600, 300, batch_first=True)
  (linear_dec): Linear(in_features=300, out_features=11004)
)
MLP_I_AE(
  (layer1): Linear(in_features=300, out_features=300)
  (bn1): BatchNorm1d(300, eps=1e-05, momentum=0.1, affine=True)
  (activation1): ReLU()
  (layer2): Linear(in_features=300, out_features=300)
  (bn2): BatchNorm1d(300, eps=1e-05, momentum=0.1, affine=True)
  (activation2): ReLU()
  (layer7): Linear(in_features=300, out_features=100)
  (linear_mu): Linear(in_features=100, out_features=100)
  (linear_var): Linear(in_features=100, out_features=100)
)
MLP_G(
  (layer1): Linear(in_features=100, out_features=300)
  (bn1): BatchNorm1d(300, eps=1e-05, momentum=0.1, affine=True)
  (activation1): ReLU()
  (layer2): Linear(in_features=300, out_features=300)
  (bn2): BatchNorm1d(300, eps=1e-05, momentum=0.1, affine=True)
  (activation2): ReLU()
  (layer7): Linear(in_features=300, out_features=300)
)
MLP_D(
  (layer1): Linear(in_features=300, out_features=300)
  (activation1): LeakyReLU(0.2)
  (layer2): Linear(in_features=300, out_features=300)
  (bn2): BatchNorm1d(300, eps=1e-05, momentum=0.1, affine=True)
  (activation2): LeakyReLU(0.2)
  (layer6): Linear(in_features=300, out_features=1)
)
Training...
[1/15][99/13866] Loss_D: 0.00438566 (Loss_D_real: -0.00412287 Loss_D_fake: 0.00026278) Loss_G: 0.00026703 Loss_I: 3.73219061
[1/15][199/13866] Loss_D: 0.00421259 (Loss_D_real: -0.00396810 Loss_D_fake: 0.00024450) Loss_G: 0.00009797 Loss_I: 3.82731724
| epoch   1 |   200/13866 batches | ms/batch 1120.58 | loss  4.60 | ppl    99.18 | acc     0.43
[1/15][299/13866] Loss_D: 0.00340471 (Loss_D_real: -0.00378642 Loss_D_fake: -0.00038172) Loss_G: -0.00032121 Loss_I: 3.77757788
…
